nebulastream/nes-plugins/onnx/tests/testData/iris_95acc.onnx (onnx, 2492 bytes, 6 tensors)

sequential/dense_2/MatMul/ReadVariableOp/transpose f4 [3, 10]
0.5666271 0.670699 0.25461265 -0.61011326 -0.6076727 -0.55184305 0.68728703 -0.08526868
0.5732296 0.55645335 -0.16794397 0.33345926 -0.6275293 -0.20600542 0.5419428 0.022991447
0.44299242 -0.54733366 0.018558003 0.12156558 0.23128672 -0.7793052 -0.28476825 0.24223728
0.22147474 0.7002615 0.5703368 -0.22997457 -0.4651887 -0.6360612
00000000: 790e 113f eeb2 2b3f 975c 823e 6230 1cbf
00000010: 7090 1bbf 9645 0dbf 0bf2 2f3f 58a1 aebd
00000020: 2dbf 123f ba73 0e3f 81f9 2bbe 2cbb aa3e
00000030: c3a5 20bf 16f3 52be c3bc 0a3f 8f58 bc3c
00000040: e7cf e23e 0f1e 0cbf f406 983c 60f7 f83d
00000050: 6dd6 6c3e 8c80 47bf 25cd 91be 0d0d 783e
00000060: 46ca 623e 5644 333f 9801 123f 747e 6bbe
00000070: 372d eebe e8d4 22bf

sequential/dense_1/MatMul_bias f4 [10]
0.041990895 0.08258085 0.04125101 0.09083441 -0.05393829 -0.07750622 0.03412797 0.0
0.091198035 0.076245226
00000000: a5fe 2b3d 2620 a93d d2f6 283d 6407 ba3d
00000010: 65ee 5cbd 95bb 9ebd c5c9 0b3d 0000 0000
00000020: 09c6 ba3d 7526 9c3d

sequential/dense/MatMul/ReadVariableOp/transpose f4 [10, 4]
-0.51307017 0.12597734 0.51679075 -0.3516111 0.05761734 0.22075126 -0.27530408 0.51863587
-0.10851537 0.073889755 0.3487754 -0.2128679 0.13784136 0.591643 0.43875515 -0.6691991
-0.6299814 0.16488647 -0.42514783 0.30213368 -0.1667952 0.2876929 -0.19391516 -0.5312565
-0.4298336 -0.5375244 0.00038695335 -0.11352563 0.27496064 -0.15855075 0.6078511 0.33240238
-0.12379613 0.012905538 0.29303178 0.7180613 0.4752002 -0.47517127 0.011087523 0.084145606
00000000: 9158 03bf 3400 013e 664c 043f 5f06 b4be
00000010: 2900 6c3d 9e0c 623e a8f4 8cbe 52c5 043f
00000020: 4e3d debd 8353 973d b092 b23e 0bfa 59be
00000030: 4926 0d3e ea75 173f 84a4 e03e a250 2bbf
00000040: 7646 21bf 00d8 283e faac d9be 44b1 9a3e
00000050: 5ccc 2abe 7c4c 933e b291 46be 6d00 08bf
00000060: 2613 dcbe 339b 09bf 00e0 ca39 2080 e8bd
00000070: a4c7 8c3e 215b 22be 219c 1b3f a530 aa3e
00000080: d388 fdbd c071 533c 4308 963e ded2 373f
00000090: 714d f33e a649 f3be 71a8 353c 8854 ac3d

sequential/dense_1/MatMul/ReadVariableOp/transpose f4 [10, 10]
-0.4842935 -0.10497578 -0.35685325 0.28912544 -0.0828751 -0.52277803 -0.055263072 -0.047124915
-0.04844222 -0.11498938 0.5386214 0.42301333 0.13021077 0.21812788 0.43193024 -0.51121444
0.3400932 -0.12850952 -0.18215118 0.043041606 0.46824884 0.5247554 0.4567485 0.061098542
0.15228105 -0.4088928 -0.010471284 -0.39265624 0.40756205 0.16032235 -0.331129 -0.087309755
0.66386294 -0.4394733 -0.14643764 0.10485399 -0.11189982 0.16568851 0.432112 0.48883468
-0.23438647 0.3853223 0.45175532 0.071822844 -0.46659708 0.49894488 -0.28211167 0.3910418
-0.108557604 -0.3042983 0.2215761 -0.28192663 0.36938566 0.04286455 -0.2204515 0.25641978
-0.3182129 0.37653783 0.48518375 -0.2210819 0.4451369 0.44027722 -0.42380968 0.45506012
-0.19441685 0.29801446 0.37686068 0.13515048 -0.30727714 -0.54221976 -0.07919881 0.3448459
-0.29519975 -0.3266082 -0.17332661 0.43649268 -0.10604128 -0.37278163 -0.046640515 -0.39496762
-0.019162 0.32861945 -0.31271705 0.4007815 0.08773202 -0.35327518 0.3982194 -0.0040427437
-0.58017963 -0.053019185 0.4618901 -0.106543474 0.21406646 0.49922866 0.5335604 -0.37024915
-0.033749223 0.11562969 -0.3134715 -0.100173905
00000000: 51f5 f7be 8bfd d6bd 78b5 b6be 4008 943e
00000010: 6cba a9bd c8d4 05bf 885b 62bd 0e06 41bd
00000020: 596b 46bd 8d7f ebbd 18e3 093f 3495 d83e
00000030: f955 053e ea5c 5f3e f625 dd3e f3de 02bf
00000040: b220 ae3e 0098 03be d785 3abe 654c 303d
00000050: 50be ef3e 5f56 063f f0da e93e 7742 7a3d
00000060: 90ef 1b3e 665a d1be c08f 2bbc 3d0a c9be
00000070: f9ab d03e 8b2b 243e be89 a9be 75cf b2bd
00000080: ecf2 293f a502 e1be c0f3 15be b0bd d63d
00000090: bc2b e5bd 40aa 293e c93d dd3e 8a48 fa3e
000000a0: 0203 70be f748 c53e 794c e73e db17 933d
000000b0: d0e5 eebe b475 ff3e f170 90be a136 c83e
000000c0: 7353 debd fdcc 9bbe d8e4 623e b058 90be
000000d0: 1e20 bd3e bd92 2f3d 0abe 61be 7449 833e
000000e0: cdec a2be 91c9 c03e 016a f83e 4b63 62be
000000f0: fce8 e33e 046c e13e 95fd d8be a4fd e83e
00000100: 3615 47be 5a95 983e e2f3 c03e e364 0a3e
00000110: 6e53 9dbe eace 0abf fc32 a2bd a48f b03e
00000120: 6c24 97be 3139 a7be 887c 31be f87b df3e
00000130: 2c2c d9bd 3cdd bebe 200a 3fbd 3239 cabe
00000140: a0f9 9cbc cf40 a83e 731c a0be 3c33 cd3e
00000150: d8ac b33d 7ce0 b4be 6ae3 cb3e fe78 84bb
00000160: a786 14bf a52a 59bd dc7c ec3e 7733 dabd
00000170: 3d34 5b3e e69a ff3e 6a97 083f 4c91 bdbe
00000180: a03c 0abd 42cf ec3d 567f a0be fa27 cdbd

sequential/dense_2/MatMul_bias f4 [3]
0.063688196 -0.024815023 -0.05539815
00000000: f56e 823d e048 cbbc 2ce9 62bd

sequential/dense/MatMul_bias f4 [10]
0.0 0.028570205 -0.0393407 0.084399834 0.0 0.0 0.0 -0.07286691
-0.04537472 0.073256664
00000000: 0000 0000 100c ea3c b723 21bd d2d9 ac3d
00000010: 0000 0000 0000 0000 0000 0000 3f3b 95bd
00000020: d8da 39bd 9707 963d
